====================================================================================================
Layer (type:depth-idx)                             Output Shape              Param #
====================================================================================================
STAttention                                        [1, 1, 128, 64]           --
├─FCLayer: 1-1                                     [1, 64, 19, 128]          --
│    └─Conv2d: 2-1                                 [1, 64, 19, 128]          192
├─PositionalEncoding: 1-2                          [1, 128, 19, 64]          --
├─TransformerLayers: 1-3                           [1, 128, 19, 64]          --
│    └─TransformerEncoder: 2-2                     [19, 128, 64]             --
│    │    └─ModuleList: 3-1                        --                        49,984
├─TransformerLayers: 1-4                           [1, 19, 128, 64]          --
│    └─TransformerEncoder: 2-3                     [128, 19, 64]             --
│    │    └─ModuleList: 3-2                        --                        49,984
├─TransformerLayers: 1-5                           [1, 128, 19, 64]          --
│    └─TransformerEncoder: 2-4                     [19, 128, 64]             --
│    │    └─ModuleList: 3-3                        --                        49,984
├─LayerNorm: 1-6                                   [1, 128, 19, 64]          128
├─TransformerLayers: 1-7                           [1, 128, 19, 64]          --
│    └─TransformerEncoder: 2-5                     [19, 128, 64]             --
│    │    └─ModuleList: 3-4                        --                        49,984
├─TransformerLayers: 1-8                           [1, 19, 128, 64]          --
│    └─TransformerEncoder: 2-6                     [128, 19, 64]             --
│    │    └─ModuleList: 3-5                        --                        49,984
├─TransformerLayers: 1-9                           [1, 128, 19, 64]          --
│    └─TransformerEncoder: 2-7                     [19, 128, 64]             --
│    │    └─ModuleList: 3-6                        --                        49,984
├─LayerNorm: 1-10                                  [1, 128, 19, 64]          128
====================================================================================================
Total params: 300,352
Trainable params: 300,352
Non-trainable params: 0
Total mult-adds (M): 11.54
====================================================================================================
Input size (MB): 0.02
Forward/backward pass size (MB): 56.03
Params size (MB): 0.80
Estimated Total Size (MB): 56.85
…
